nav/uagrm/uagrm.pth (torch, 189228 bytes, 17 tensors)

t_embed.weight f4 [20, 6]
0	0xc0038fc3	-2.0556495
1	0xbf9432c5	-1.1577994
2	0xbf4142c4	-0.754925
3	0xbef742ff	-0.482933
4	0x3f37b466	0.7175964
5	0xbe800c07	-0.25009176
6	0xbf6c80b3	-0.9238388
7	0xbe3f1cd1	-0.18663336
8	0xbf9292c8	-1.1451044
9	0xbeb505a0	-0.35355854
10	0xbf576277	-0.8413462
11	0x3f95e8f0	1.1711712
12	0xbe5a767b	-0.21334259
13	0x3f54f690	0.83188725
14	0xbe5f2d1e	-0.21794555
15	0x3f7fdb6f	0.99944204
16	0xbf9212df	-1.1412009
17	0x3f80c4eb	1.0060095
18	0x3f12b3c8	0.57305574
19	0xbf9c7ee6	-1.2226226
20	0x400c8b9f	2.1960218
21	0x3fbb28f2	1.462187
22	0xbf870850	-1.0549412
23	0x3ef435ac	0.47697198
24	0x3eaadcb8	0.3337152
25	0x3f01e7db	0.5074441
26	0x3f158988	0.5841298
27	0x3f335401	0.70050055
28	0xbf46eb16	-0.7770246
29	0x3dd811d6	0.10550277
30	0x3d02eca7	0.03196397
31	0xc003c16d	-2.0586808
32	0xbf5288ab	-0.8223979
33	0x3ebf8298	0.37404323
34	0xbfae4506	-1.3614814
35	0x3f0b9130	0.54518414
36	0xbee1edd7	-0.4412677
37	0xbda4813e	-0.080324635
38	0xbff52268	-1.9151125
39	0x3e4238ea	0.18967023
40	0xbf50a221	-0.8149739
41	0xbda532c0	-0.080663204
42	0x3f929bf3	1.1453842
43	0xbdec51a6	-0.11539011
44	0x3f9c8015	1.2226588
45	0xbfdd8534	-1.7306275
46	0xbf53c0ca	-0.8271605
47	0xbf83b906	-1.029084
48	0xbfb06ae9	-1.3782626
49	0x3f23e92a	0.64027655
50	0x3eec045a	0.4609707
51	0x3c8c6c78	0.017141566
52	0x3f868c6d	1.0511605
53	0x3f9250be	1.143089
54	0x3e8e90fa	0.27844983
55	0x3e1344f1	0.14381768
56	0xbdde0bf7	-0.10842126
57	0x3f91f793	1.1403679
58	0xbef2d03e	-0.474245
59	0x401af519	2.4212096
60	0x3f7eee72	0.9958259
61	0x3c91d325	0.017800877
62	0xbf03d01f	-0.5148944
63	0xbe85a1ce	-0.2610001
64	0x3f6296e5	0.88511497
65	0xbe6150f6	-0.2200354
66	0x3f0461cd	0.5171173
67	0xbea920cd	-0.33032838
68	0x3f6a3b38	0.9149661
69	0x3fec0731	1.8439695
70	0xbfc1bfd6	-1.5136669
71	0x3f326b6a	0.6969515
72	0xbed7b6cf	-0.4213166
73	0xbf5cff67	-0.86327213
74	0xbf7d6376	-0.9897989
75	0xbb176f22	-0.0023107012
76	0x3df815bc	0.121135205
77	0x3eb32ebe	0.349966
78	0x3e36c244	0.17847544
79	0x3f2052d1	0.6262637
80	0xc029dedb	-2.654227
81	0xbfdbb9fc	-1.7166133
82	0x3fa9f467	1.3277711
83	0xbfa3dabf	-1.2801131
84	0x3ff7cefb	1.936004
85	0xbf3bbb22	-0.73332417
86	0xbdafa7a9	-0.085769005
87	0x3f79afb5	0.9753373
88	0xbf9cbd5b	-1.2245287
89	0x3ec0b865	0.37640682
90	0x3ec30c40	0.38095284
91	0xbfacf061	-1.3510858
92	0x3b862ff5	0.0040950724
93	0x3e832270	0.2561221
94	0x3c8075c1	0.01568115
95	0xbed211b8	-0.41029143
96	0x3fd895ca	1.6920712
97	0x3f4f783c	0.8104284
98	0x3f5aa9d3	0.8541538
99	0xbf4f65df	-0.8101482
100	0xbf04fa8b	-0.519448
101	0xbf5a743d	-0.85333616
102	0x3e027569	0.12740101
103	0x3cef2c7c	0.029196016
104	0x3d948572	0.07252015
105	0xbfa907bb	-1.3205484
106	0xbf5a8317	-0.8535628
107	0x3e341c65	0.17588957
108	0x3edb82f1	0.42873338
109	0x3e1be6ba	0.15224734
110	0xbf8a9d5f	-1.0829276
111	0xc014007e	-2.31253
112	0xbb3a9530	-0.002847027
113	0xbb836614	-0.0040099714
114	0x3f478948	0.7794385
115	0x3ed72b9c	0.4202546
116	0xbed9ae39	-0.42515734
117	0xbb254ac9	-0.0025221577
118	0xbd3d5ba2	-0.046229966
119	0xbd228b56	-0.039683662

refine_block.0.weight f4 [64, 12, 3, 3]
0	0x3d0a1eed	0.0337209
1	0x3da3a268	0.07989961
2	0xbc1de740	-0.009637654
3	0xbc679214	-0.014133949
4	0x3d3c5b6d	0.045985628
5	0x3d8286ab	0.06373342
6	0x3d3072e2	0.04307831
7	0x3c01e957	0.007929168
8	0x3d45b492	0.04826791
9	0x3d51befd	0.05120753
10	0x3daf8dcb	0.08571967
11	0x3cd9f7b4	0.026607372
12	0x3d8c9c7f	0.06865787
13	0xbcd9a8f8	-0.026569828
14	0xbd453c5d	-0.04815327
15	0x3ddf4987	0.10902696
16	0x3d94cd8a	0.07265766
17	0x3cb9e4d2	0.022692118
18	0x3d8715b9	0.0659594
19	0xbd462acf	-0.04838067
20	0x3c9a2a1b	0.018818906
21	0x3d8f9f00	0.07012749
22	0xbca7ee49	-0.020499365
23	0xbd7970da	-0.06089864
24	0xbd5fd8f2	-0.054650255
25	0x3d0c8a52	0.0343116
26	0xbcb08b14	-0.021550693
27	0x3d332292	0.04373414
28	0xbd48dee6	-0.049040698
29	0xbde20d58	-0.11037701
30	0xbdd5a508	-0.10431868
31	0xbd809e6a	-0.06280215
32	0xbda0befa	-0.07848926
33	0xbd518bb1	-0.05115861
34	0xbcf2da90	-0.029645234
35	0xbd1ab23d	-0.037767638
36	0x3cea44d9	0.028597282
37	0x3d9e7518	0.077371776
38	0xbccc8218	-0.024964377
39	0x3cd73f99	0.026275443
40	0xbdb1024e	-0.08643018
41	0x3d92e9b4	0.071734816
42	0xbca3796f	-0.019955365
43	0x3d57037a	0.05249355
44	0xbdc1c2b0	-0.09460962
45	0x3bad227a	0.005283651
46	0x3ccbf01f	0.024894772
47	0x3d9f26d6	0.07771079
48	0x3d7377e7	0.05944052
49	0x3d7eee07	0.06223872
50	0x3c435c73	0.011923897
51	0x3d3e8bbb	0.046519976
52	0xbcdec4d3	-0.027193462
53	0xbd748b6e	-0.059703283
54	0xbcc954ae	-0.024576511
55	0xbd1669a0	-0.036721826
56	0x3d585bee	0.052822046
57	0x3c9cd90e	0.019146468
58	0xbd250268	-0.040285498
59	0x3d65e037	0.05612203
60	0x3d2a3f90	0.041564524
61	0x3c349320	0.011021405
62	0x3cdd560f	0.027018575
63	0xbd378caa	-0.044811882
64	0x3cd0a901	0.025471212
65	0x3d9f1a4f	0.0776869
66	0xbda7c5ac	-0.08192
67	0xbc906f30	-0.017631143
68	0xbd3b2b80	-0.04569578
69	0x3cae5716	0.02128176
70	0x3d1cddf0	0.038297594
71	0xbc6d8196	-0.014496228
72	0x3d3c39a8	0.045953423
73	0x3d9988fe	0.07496832
74	0x3d748dfd	0.059705723
75	0xbdd1aab4	-0.10237637
76	0xbdb74605	-0.08948902
77	0xbcd1c85a	-0.02560823
78	0x3d1da7fa	0.038490273
79	0xbc55f974	-0.013059963
80	0xbd446cd0	-0.047955334
81	0xbbf2aa7d	-0.0074055777
82	0xbd2c155f	-0.04201257
83	0xba2b8184	-0.00065424317
84	0xbd10f7aa	-0.03539244
85	0x3d245b32	0.040126033
86	0xbdd2bbf3	-0.10289755
87	0x3d4fd61a	0.050741293
88	0xbd9d0d19	-0.07668514
89	0x3dae2002	0.08502199
90	0x3cb9b7ba	0.022670615
91	0x3c492e48	0.012279101
92	0x3d7cdd99	0.06173477
93	0x391748a3	0.00014427541
94	0xbda04097	-0.078248195
95	0xbd9b5bc5	-0.07585863
96	0x3c1c30aa	0.009533087
97	0xbd3490d2	-0.044083424
98	0xbd47f33d	-0.048815954
99	0xbd24d2d2	-0.040240116
100	0xbcf3dfd6	-0.02976982
101	0x3bb4669e	0.005505397
102	0xbbd2d3b5	-0.006433929
103	0x3d6e0681	0.05811167
104	0xbbf30ed2	-0.007417538
105	0x3b742af0	0.0037257038
106	0x3c7f1a6c	0.015570264
107	0x3bdb878c	0.006699508
108	0xbd20e4d5	-0.03928073
109	0xbd0a4d10	-0.0337649
110	0xbd084fdc	-0.033279285
111	0x3d9363e1	0.07196785
112	0x3de3f926	0.11131506
113	0x3c5de9c1	0.013544501
114	0x3c6fbbc1	0.014632166
115	0xbca5883f	-0.020206569
116	0x3d70065d	0.05859982
117	0x3c6893be	0.014195381
118	0xbda8d9f1	-0.08244694
119	0xbd30ee57	-0.04319605
120	0x3c80c9db	0.015721252
121	0x3d6f1923	0.05837358
122	0xbc43911d	-0.011936453
123	0x3caecdd3	0.021338379
124	0x3c044599	0.008073234
125	0xbb423b44	-0.0029637376
126	0xbdde3833	-0.10850563
127	0xbd2bba23	-0.04192556
128	0xbd99e299	-0.07513923
129	0xbd94ef82	-0.07272245
130	0x3cc203aa	0.023683388
131	0xbcace74f	-0.02110639
132	0xbde6f281	-0.11276723
133	0xbcc4235f	-0.023942648
134	0xbc6be126	-0.014396941
135	0xbde25f85	-0.11053375
136	0x3c76a276	0.015053382
137	0x3d0d6d6a	0.034528174
138	0x3b63f5d3	0.0034783974
139	0xbd5d2d88	-0.0539985
140	0x3c600272	0.013672458
141	0xbd9168bf	-0.07100057
142	0xbd1aa113	-0.03775127
143	0xbd92f381	-0.07175351
144	0x3d585048	0.052810937
145	0xbd23c1a3	-0.03997959
146	0x3db44af2	0.08803357
147	0x3d94427e	0.07239245
148	0x3d0e5793	0.034751486
149	0x3c93ea0e	0.018055942
150	0xbda3cf09	-0.07998473
151	0xbd69b449	-0.0570567
152	0x3dd3cc44	0.10341695
153	0x3da0cb47	0.07851272
154	0xbc9fffd2	-0.019531164
155	0x3dd84ca0	0.1056149
156	0x3cd6e941	0.026234271
157	0x3de162c8	0.11005169
158	0xbd92b3e3	-0.07163217
159	0xbd112e2e	-0.03544443
160	0xbcf50fac	-0.0299147
161	0x3bb73451	0.0055909534
162	0xbd4af5ce	-0.049550824
163	0xbda6b8a5	-0.08140687
164	0xbda29a30	-0.07939565
165	0xbd6ca512	-0.05777461
166	0x3cf61b8d	0.030042434
167	0xbd910c83	-0.070824645
168	0x3c39c6e2	0.011338921
169	0x3be2761c	0.0069110524
170	0xbd88b67a	-0.0667543
171	0x3d3a68e9	0.045510206
172	0xbda1c4a6	-0.07898836
173	0x3c3b3569	0.011426308
174	0x3db9eee5	0.09078769
175	0xbd95cdcf	-0.073146455
176	0xbd210199	-0.039308164
177	0x3d6bbdbd	0.057553995
178	0xbd3859d3	-0.045007538
179	0xbbdc974b	-0.0067319027
180	0x3ae974df	0.001781132
181	0xbcbc6998	-0.02299957
182	0xbb72917c	-0.0037012985
183	0x3d3c5b55	0.04598554
184	0x3ccbbf42	0.024871472
185	0x3d9215fa	0.07133098
186	0xbcc4819a	-0.02398758
187	0x3ce84720	0.028354228
188	0xbcd5cd24	-0.026098795
189	0x3d47f1f6	0.048814736
190	0xbcd6c557	-0.026217146
191	0x3d63c6ee	0.055609636
192	0xbd90c614	-0.070690304
193	0x3d98c0be	0.07458638
194	0xbc34dd03	-0.011039021
195	0xbccbae16	-0.024863284
196	0xbb39ee1f	-0.002837069
197	0xbdb0cb01	-0.0863247
198	0x3ccb3f3b	0.024810424
199	0xbcabce09	-0.020972269
200	0x3b5179e0	0.0031963512
201	0x3d46f366	0.048571967
202	0x3d659012	0.0560456
203	0xbd83f01d	-0.06442282
204	0x3b99e3fc	0.0046963673
205	0x399c5b7a	0.00029822794
206	0xbc7692f4	-0.015049685
207	0x3d88733b	0.066626035
208	0x3d86714f	0.06564581
209	0xbdc443e4	-0.095832616
210	0x3c8bd928	0.017071322
211	0xbda9e17f	-0.08294963
212	0x3d850e05	0.06496815
213	0x3d88f47f	0.06687259
214	0xbd84c942	-0.064836994
215	0xbc6e8088	-0.014557011
216	0xbd81989d	-0.06327937
217	0xbc97fd5b	-0.018553426
218	0xbb0f27ac	-0.0021843715
219	0xbce291cd	-0.027657414
220	0x3dc1dc71	0.09465874
221	0xbb8418f0	-0.004031293
222	0x3d9ec92a	0.07753213
223	0x3d860643	0.06544163
224	0xbd83b963	-0.06431844
225	0x3c556fdd	0.013027159
226	0xbdaa2715	-0.083082356
227	0xbdb2b9f4	-0.08726874
228	0x3c02efca	0.0079917405
229	0xbcee818a	-0.029114503
230	0x3c0260af	0.0079576215
231	0x3c6663de	0.014061896
232	0xbd655e69	-0.05599824
233	0xbd851e37	-0.06499904
234	0xbbc2eb55	-0.005948464
235	0x3d827a21	0.063709505
236	0xbd22a90b	-0.039711993
237	0x3bbd7a09	0.00578237
238	0x3d56fb49	0.052485738
239	0x3d6b350c	0.057423636
240	0x3d7b8ea8	0.061415344
241	0x3d41c02a	0.047302403
242	0x3dcb1ce4	0.0991762
243	0xbd42687b	-0.04746292
244	0xbd953214	-0.07284942
245	0xba5dbf44	-0.0008458982
246	0xb96c3f75	-0.00022530353
247	0x3c92cd84	0.017920263
248	0xbdaa9f3d	-0.083311535
249	0xbc8b0d09	-0.01697399
250	0xbdeea36a	-0.116522625
251	0x3d7b40ec	0.06134121
252	0x3da9284c	0.08259639
253	0x3d6dd302	0.05806256
254	0xbdb01795	-0.08598248
255	0xbd19b12d	-0.037522484

refine_block.0.bias f4 [64]
0	0x3cc1d177	0.023659451
1	0x3dba9121	0.091097124
2	0x3c0d6594	0.008630175
3	0xbdb71419	-0.0893938
4	0x3db201b5	0.08691732
5	0x3c273f83	0.0102080135
6	0x3d229335	0.03969117
7	0x3d1d8b97	0.0384632
8	0x3da2848b	0.07935437
9	0xbd90195c	-0.07036087
10	0xbd5313a4	-0.051532403
11	0x3cbf4db9	0.02335249
12	0x3d4a78b1	0.049431507
13	0xbd9fd672	-0.07804574
14	0x3d05b733	0.032645416
15	0x3dc4c079	0.09607024
16	0x3cdfb301	0.027307035
17	0xb9c18158	-0.00036908197
18	0x3d9eab6e	0.07747541
19	0xbd1deffc	-0.038558945
20	0x3dbc7b6e	0.0920323
21	0xbcaa1758	-0.020763084
22	0x3dbaa35b	0.09113189
23	0x3b0c7707	0.002143325
24	0x3d94e54c	0.072702974
25	0x3d8b7791	0.06809915
26	0xbb633b6f	-0.0034672876
27	0x3d9b5e69	0.07586367
28	0x3cb6e274	0.022324778
29	0xbc082236	-0.008308938
30	0x3b09c82f	0.002102386
31	0x3c66a098	0.0140763745
32	0xbd9cdaf0	-0.076589465
33	0x3d69072c	0.056891605
34	0xbd606982	-0.05478812
35	0x3cf2e94d	0.029652262
36	0xbd536b83	-0.051616203
37	0xbd388e75	-0.045057733
38	0xbb0d4068	-0.0021553282
39	0x3d15d3e6	0.036579035
40	0xbc6adc3d	-0.014334735
41	0x3d256761	0.040381793
42	0x3daae508	0.083444655
43	0x3c8088d8	0.015690252
44	0x3cd4b940	0.02596724
45	0xbc36be76	-0.011153808
46	0x3d0055c3	0.03133179
47	0xbd3a9cd4	-0.04555972
48	0x3cd67288	0.02617766
49	0xbd5d9042	-0.054092653
50	0xbd68d018	-0.05683908
51	0xbd8dcd0c	-0.06923875
52	0x3d7cbd3f	0.061703917
53	0xbd68ba12	-0.056818075
54	0xbd68022e	-0.056642704
55	0xbd83ab46	-0.06429152
56	0x3d985e00	0.07439804
57	0xbd107968	-0.035272032
58	0xbd39f54f	-0.04539996
59	0x3c635874	0.013876069
60	0x3d871784	0.06596282
61	0x3d834c31	0.06411017
62	0xbd494e12	-0.04914672
63	0xbdb91855	-0.09037844

refine_block.1.weight f4 [64]
0	0x3f82f8e6	1.0232208
1	0x3f797152	0.9743854
2	0x3f8204ec	1.0157752
3	0x3f7f4551	0.99715143
4	0x3f7ab933	0.9793884
5	0x3f8194f2	1.012358
6	0x3f81871d	1.0119358
7	0x3f8114b2	1.0084441
8	0x3f7e34c4	0.99299264
9	0x3f80300e	1.0014665
10	0x3f7f0980	0.9962387
11	0x3f787e9b	0.97068185
12	0x3f7fe4f8	0.99958754
13	0x3f7ae544	0.9800608
14	0x3f7f5859	0.9974418
15	0x3f84ce27	1.0375413
16	0x3f7acf0e	0.9797219
17	0x3f7a20bf	0.97706217
18	0x3f7f2d6d	0.9967869
19	0x3f803ddc	1.0018878
20	0x3f8317b9	1.0241615
21	0x3f8160da	1.0107682
22	0x3f81cca5	1.0140578
23	0x3f7ca1b0	0.98684216
24	0x3f802c9f	1.0013617
25	0x3f808e7b	1.0043482
26	0x3f805dd2	1.0028632
27	0x3f796d1b	0.97432107
28	0x3f79d082	0.9758378
29	0x3f79a7e9	0.97521836
30	0x3f7a94b3	0.97883147
31	0x3f75dd5d	0.960409
32	0x3f8076ee	1.0036294
33	0x3f825f0a	1.0185254
34	0x3f8217cd	1.0163513
35	0x3f7cc05f	0.98731035
36	0x3f7e40fc	0.9931791
37	0x3f7ce966	0.9879364
38	0x3f82204e	1.0166109
39	0x3f7e0900	0.9923248
40	0x3f7ea3dc	0.9946878
41	0x3f80cb94	1.0062127
42	0x3f7b158f	0.9807977
43	0x3f83b35e	1.0289114
44	0x3f8117c9	1.0085384
45	0x3f7f5356	0.99736536
46	0x3f7afd90	0.98043156
47	0x3f7bd4eb	0.9837176
48	0x3f76b922	0.9637624
49	0x3f8a1708	1.0788279
50	0x3f7fe166	0.99953306
51	0x3f7f3789	0.99694115
52	0x3f7e5732	0.993518
53	0x3f7c18ab	0.9847514
54	0x3f7f01e9	0.9961229
55	0x3f7be92a	0.98402655
56	0x3f778773	0.96691054
57	0x3f7c2745	0.9849742
58	0x3f79daa7	0.9759926
59	0x3f801cd7	1.0008801
60	0x3f7ad12f	0.9797544
61	0x3f74b7c6	0.95592916
62	0x3f7fb3e1	0.9988385
63	0x3f7b20d7	0.98096985

refine_block.1.bias f4 [64]
0	0x3d3fce2d	0.046827484
1	0x3d0df95d	0.03466164
2	0xbc5fe729	-0.013665953
3	0x3d07d1bb	0.033159
4	0xbd043996	-0.03228148
5	0xbb832d28	-0.004003186
6	0x3c38abe0	0.011271447
7	0x3c4fd702	0.012685539
8	0xbc15aba3	-0.00913516
9	0xbb194bd7	-0.0023391151
10	0x3ca0d922	0.019634787
11	0xbbddc9dd	-0.0067684487
12	0x3d260df8	0.040540665
13	0x3b99f08c	0.004697865
14	0x3c9acea2	0.018897358
15	0xbc834e72	-0.016028617
16	0x3b9c7f8c	0.004775947
17	0xbcb99d98	-0.022658154
18	0x3c845a67	0.016156388
19	0x3d2b7d99	0.041867826
20	0x3d22c28a	0.03973631
21	0x3d3a5a7b	0.045496445
22	0x3c8de22e	0.017319765
23	0x3cb7ce26	0.022437166
24	0x3b937674	0.0045002047
25	0xbaaf9f1e	-0.0013398861
26	0x3c967602	0.018366817
27	0x38c84185	9.548947e-05
28	0xbc410fd6	-0.011783561
29	0xbd2c418a	-0.04205469
30	0xbcd059d7	-0.025433464
31	0xbd87d2dc	-0.06632015
32	0x3c8e714b	0.017388007
33	0xbcc52eb7	-0.024070127
34	0x3d29e708	0.041480094
35	0x3cb557d7	0.022136612
36	0x3bc0e97f	0.00588721
37	0x3c218ecd	0.0098607065
38	0x3da75cd6	0.08172004
39	0xbcd599d4	-0.026074328
40	0xbcedf830	-0.02904901
41	0xbd0a455c	-0.033757553
42	0x3bdbabdc	0.006703837
43	0x3cb628b0	0.022236198
44	0x3d05fb3e	0.032710306
45	0x3b673249	0.0035277775
46	0x3c5aed9c	0.013362315
47	0xbc9f6c36	-0.019460779
48	0xbd48dc2c	-0.049038097
49	0xbc849919	-0.016186284
50	0xbb98e83b	-0.004666356
51	0x3b061466	0.0020458936
52	0x3b96d1dd	0.0046026544
53	0xbb17f205	-0.0023185026
54	0x3cd31216	0.02576546
55	0xbbadf1fb	-0.0053083873
56	0x3bfd858c	0.0077368673
57	0xbc91f3db	-0.017816475
58	0xbc7d5750	-0.015462711
59	0x3d2a6590	0.041600764
60	0x3cbda595	0.023150245
61	0xbd2c567c	-0.042074665
62	0x3cf7c3d5	0.030244747
63	0x3ce5379d	0.02798062

refine_block.1.running_mean f4 [64]
0	0xc0a9f236	-5.310817
1	0x413ad7d4	11.677692
2	0x3fa9127c	1.3208766
3	0xc0020d58	-2.0320644
4	0xc17ee785	-15.931523
5	0xbfde4e9a	-1.7367737
6	0xbf621aba	-0.8832203
7	0x401c2f7f	2.440399
8	0x41441140	12.254211
9	0x4053de37	3.310438
10	0x40f26c87	7.575748
11	0xc1a821f3	-21.016577
12	0x410f0d8d	8.940808
13	0xc02e8f63	-2.7275016
14	0x411d26d4	9.8219795
15	0xbfb37483	-1.4019932
16	0x4112d669	9.177346
17	0x41bd2544	23.643196
18	0x41e85b9b	29.04473
19	0x41958c22	18.693424
20	0xc01d17aa	-2.4545693
21	0x3fcff3c8	1.6246271
22	0x3f2b1f67	0.6684479
23	0x410eda3d	8.928281
24	0x3e95e94a	0.29279548
25	0x3fbb5be2	1.4637415
26	0xc1065add	-8.397183
27	0x3f739581	0.9515
28	0xc1179769	-9.474465
29	0xc150130a	-13.004648
30	0xc144d9d4	-12.303181
31	0xc161c52a	-14.110636
32	0x40c119cc	6.034399
33	0x416bd762	14.740084
34	0x40a7a68d	5.239081
35	0xc0d3c1e3	-6.617418
36	0x4129811a	10.594019
37	0x41f49e9e	30.57745
38	0x3fc92e4c	1.5717254
39	0x3ffab04b	1.958505
40	0xbff215da	-1.8912919
41	0x3ffd07d9	1.976802
42	0xc07887e1	-3.8832934
43	0xbffeb456	-1.9898784
44	0xbda92d20	-0.0826056
45	0x407dddc0	3.9666595
46	0x419bb710	19.464386
47	0xc0bff938	-5.999172
48	0xc0ca5f04	-6.3240986
49	0x3f6efa1b	0.9335038
50	0xbfa7af6c	-1.310041
51	0x40a5d41e	5.182143
52	0x40b1eff1	5.5605397
53	0x408e06b2	4.4383173
54	0x3d8d50cd	0.06900177
55	0xc14a6031	-12.648484
56	0xc0b01c70	-5.5034714
57	0x40e89e91	7.2693563
58	0xc18fb25f	-17.962095
59	0xbf34df07	-0.7065281
60	0x410d8042	8.843813
61	0xc1cb7937	-25.434187
62	0x40efa355	7.488688
63	0x41657735	14.341603

refine_block.1.running_var f4 [64]
0	0x3f0935e0	0.5359783
1	0x3f476435	0.7788728
2	0x3eac5cfa	0.33664685
3	0x3e757816	0.2397159
4	0x3f4452b9	0.76688725
5	0x3e84be62	0.259265
6	0x3dd1c4ea	0.102426365
7	0x3e46e6fb	0.1942405
8	0x3f4dcfa6	0.8039497
9	0x3f037859	0.5135551
10	0x3f0d1893	0.5511562
11	0x3ff380d8	1.9023695
12	0x3f557c16	0.83392465
13	0x3e31b212	0.17353085
14	0x3f4b4328	0.7939935
15	0x3e41ee7a	0.18938628
16	0x3ee03d1b	0.4379662
17	0x401104ba	2.2659135
18	0x4067b3aa	3.6203408
19	0x3fb20a5a	1.3909409
20	0x3e8c3119	0.2738121
21	0x3ee91e81	0.45531085
22	0x3ded512e	0.115877494
23	0x3f0545b8	0.5205951
24	0x3ead2247	0.33815214
25	0x3f0510a7	0.51978534
26	0x3f0de143	0.5542185
27	0x3f059ec0	0.5219536
28	0x3ee0607e	0.43823618
29	0x3f432254	0.76224256
30	0x3f446843	0.7672159
31	0x3f71b4c0	0.9441643
32	0x3e6f2301	0.23353197
33	0x3f9b3a08	1.2127085
34	0x3edbc2ec	0.4292215
35	0x3f081776	0.531608
36	0x3f260e9a	0.6486603
37	0x40830faa	4.095662
38	0x3e2c362d	0.16817541
39	0x3e6c2317	0.2306026
40	0x3e363595	0.17793877
41	0x3e9fa486	0.3118021
42	0x3e8e7a86	0.27827853
43	0x3e369d07	0.17833339
44	0x3e18c769	0.14919819
45	0x3f0a0750	0.5391741
46	0x3fdfd073	1.7485489
47	0x3ef974fa	0.4872206
48	0x3f073f7a	0.5283123
49	0x3d20ce3a	0.039259173
50	0x3dad50cb	0.08462676
51	0x3e15d0b0	0.14630389
52	0x3e3b9583	0.18318753
53	0x3f160f24	0.5861685
54	0x3e2cd857	0.16879402
55	0x3f4ba15f	0.7954311
56	0x3ee0c5b1	0.43900827
57	0x3ef9c8f0	0.48786116
58	0x3fd973da	1.698848
59	0x3d87772e	0.066145286
60	0x3f37c13e	0.7177924
61	0x4019bf82	2.4023137
62	0x3f355b5e	0.7084254
63	0x3f3a54c6	0.72785604

refine_block.3.weight f4 [64, 64, 3, 3]
0	0xbb38e4cd	-0.0028212548
1	0xbcd5167c	-0.026011698
2	0xbd45612a	-0.048188366
3	0x3c611a6e	0.0137392115
4	0xbd34b48b	-0.04411749
5	0xbd09612d	-0.03353994
6	0xbd4a9fad	-0.049468685
7	0x3c8bca4c	0.017064236
8	0xbd211f4d	-0.03933649
9	0x3bad4cd7	0.005288701
10	0xbc669f00	-0.0140759945
11	0xbb4b37ec	-0.0031008674
12	0x3928c624	0.00016095542
13	0xbc50edf8	-0.012752049
14	0x3b58bc3d	0.0033071183
15	0xbbd7e0a8	-0.0065880604
16	0xbd5a08e5	-0.05323114
17	0x3bf1d77c	0.007380424
18	0xbd081a08	-0.03322795
19	0xbcddd776	-0.027080279
20	0xbd21d856	-0.039512955
21	0xbb72dff9	-0.0037059768
22	0xbc76d851	-0.015066222
23	0xbd18877c	-0.037238583
24	0xbc8d752d	-0.017267788
25	0x3c05fe55	0.008178313
26	0x3b4e40a5	0.0031471637
27	0xbc79186c	-0.015203577
28	0xbc398cfc	-0.011325117
29	0xbb9d6134	-0.0048028473
30	0xbd6fa1a0	-0.058503747
31	0xbc53a7c8	-0.01291842
32	0xbd530dfc	-0.05152701
33	0xbd3c0acc	-0.045908734
34	0xbc9b2621	-0.01893908
35	0xbcb87e7f	-0.022521256
36	0x3d05141a	0.032489873
37	0xbd0138ca	-0.0315483
38	0x3c43d136	0.011951735
39	0x393c4a3c	0.00017956732
40	0xbc9fd284	-0.019509561
41	0xbc05e9df	-0.008173435
42	0xbd0e6838	-0.03476736
43	0xbbcf38b5	-0.0063238987
44	0x3cad0f73	0.02112553
45	0xbca27ca2	-0.01983482
46	0x3ca15a96	0.019696515
47	0xbc4a268f	-0.012338295
48	0xbc92142c	-0.017831884
49	0xbc9090e0	-0.017647207
50	0xbcade7b9	-0.021228658
51	0xbbf003a2	-0.007324652
52	0xbd31d9f9	-0.043420766
53	0xbc5dd3bc	-0.013539251
54	0x3ae804ef	0.0017701666
55	0xbb833377	-0.004003938
56	0x3d0cad32	0.03434486
57	0xbccf4744	-0.025302537
58	0x3c451825	0.012029682
59	0x3d0abcea	0.03387157
60	0x3c1da177	0.009621016
61	0xbc8b9d7e	-0.017042872
62	0xbcbfee2f	-0.023429004
63	0x3d066e06	0.03281977
64	0xbb8afd62	-0.0042416314
65	0xbca9809d	-0.02069121
66	0x3c16fb2f	0.00921516
67	0xbc1273b6	-0.00893872
68	0xbcb72a6c	-0.022359096
69	0xbc89e3c5	-0.016832242
70	0x3c182189	0.009285339
71	0x3c8935b8	0.016749248
72	0xbcdf5ff6	-0.027267437
73	0xbcf723fc	-0.030168526
74	0xbc588ae4	-0.013216708
75	0xbd01de2e	-0.031706028
76	0xbcf06e0a	-0.029349346
77	0x3d1ded90	0.038556635
78	0x3c86bf7e	0.016448732
79	0x3cd07c66	0.025449943
80	0xbcce3257	-0.025170488
81	0xbc3e5dba	-0.011619026
82	0x3c3997b3	0.011327672
83	0xbc876e83	-0.016532188
84	0xbcafe1af	-0.021469919
85	0x3c85aef3	0.016318774
86	0xbc34f562	-0.011044832
87	0xbd869841	-0.06572009
88	0xbc699720	-0.014257222
89	0xbcffb7e2	-0.031215612
90	0xbc567b76	-0.013090959
91	0xbcd78019	-0.026306199
92	0x3b987259	0.004652303
93	0x3c6a6a92	0.014307635
94	0x3d058719	0.032599542
95	0xbd282968	-0.041055113
96	0xbc4299f0	-0.011877522
97	0x3cf7aaa4	0.030232735
98	0xbd0d5527	-0.034505036
99	0xbcab0a44	-0.020878918
100	0xbcc58d4d	-0.024115229
101	0x3b51ff80	0.003204316
102	0x3ccbb63f	0.024867175
103	0x3cbb27b5	0.022846082
104	0x3c37fa59	0.011229121
105	0x3d04e7e1	0.0324477
106	0x3ca4a435	0.020097831
107	0x3c961e7b	0.018325081
108	0x3c265cd9	0.010153973
109	0x39f87cf4	0.00047395343
110	0x3a8d0092	0.0010757616
111	0x3d1c5967	0.0381712
112	0x3d0a1a97	0.033716764
113	0xbd400839	-0.04688284
114	0xbd1932fc	-0.037402138
115	0xbbd34c6e	-0.00644832
116	0xbd190d27	-0.03736606
117	0xbc7318c2	-0.014837446
118	0x3c6ff0ed	0.0146448435
119	0xbbf700fb	-0.0075379587
120	0x3cf5c119	0.029999303
121	0x3c26bbf0	0.010176644
122	0xbbbef137	-0.005827095
123	0x3cd439ce	0.02590647
124	0x3cd8cf91	0.026466163
125	0xbd35cc5e	-0.044384353
126	0xbd479ce3	-0.048733603
127	0xbcf38e9a	-0.029731084
128	0xbd6cc122	-0.057801373
129	0xbbf55549	-0.0074869734
130	0xbb802027	-0.003910083
131	0xbcd065f7	-0.025439246
132	0xbb2e8ace	-0.0026633027
133	0xbbdd9934	-0.006762648
134	0xbd313c02	-0.04327012
135	0x3cd20b0b	0.025640031
136	0x3ce6b47a	0.02816223
137	0xbd0678bb	-0.03282998
138	0xbc50e9eb	-0.012751083
139	0x3d290f3d	0.041274298
140	0x3cebe939	0.028797733
141	0x3d193b13	0.037409853
142	0xbcb2cfe3	-0.021827644
143	0x3c95293f	0.018208144
144	0xbc8c8bf2	-0.017156575
145	0xbcef8c71	-0.029241772
146	0xbd423fab	-0.047424
147	0xbad46737	-0.0016205077
148	0x3c820271	0.015870305
149	0xbd3e36be	-0.046438925
150	0xbc92901a	-0.017890979
151	0x3c17aa5f	0.009256928
152	0xbc6d8a20	-0.014498264
153	0xbd4fba38	-0.0507147
154	0xbb4731f6	-0.003039477
155	0xbbc3cdf9	-0.0059754816
156	0xbc8cd9bc	-0.017193668
157	0x3c8ae420	0.016954482
158	0xbcfa940c	-0.030588172
159	0x3b9d5dc4	0.0048024375
160	0xbcd49904	-0.02595187
161	0xbc9552a2	-0.018227879
162	0xbc55cff0	-0.013050064
163	0x3c8cff51	0.017211588
164	0x3cbe31d6	0.023217123
165	0xbd2c52b3	-0.042071056
166	0x3c444ed9	0.011981689
167	0xbc1bc40b	-0.0095071895
168	0xbd17430a	-0.036929168
169	0xbd4a5093	-0.049393248
170	0xbd1c58e6	-0.038170718
171	0xbc3ab720	-0.011396199
172	0xbac6800d	-0.0015144363
173	0x3bafca4a	0.005364691
174	0x3cbbffbf	0.022949098
175	0x3c4cc54a	0.012498209
176	0xbcbac79c	-0.02280026
177	0xbc00262c	-0.007821601
178	0xbc8612db	-0.016366413
179	0x3c570f52	0.013126211
180	0xbcbadcc9	-0.022810357
181	0xbcea9292	-0.028634343
182	0xbd5c5761	-0.05379427
183	0xbd37d783	-0.044883262
184	0xbd89a985	-0.067217864
185	0xbd499176	-0.049210988
186	0xbcc3ac79	-0.023885952
187	0x3bc0cb8b	0.005883639
188	0xbd7fe4f2	-0.0624742
189	0xbcaf3491	-0.02138737
190	0xbd334183	-0.04376365
191	0xbd089bbe	-0.033351652
192	0xbd8cca2c	-0.06874499
193	0xbbb9ba09	-0.005667929
194	0xbc9c4fb6	-0.019080978
195	0xbd8834e1	-0.06650711
196	0xbd614b25	-0.055003304
197	0x3c3a7394	0.011380095
198	0x3d0d5915	0.034508783
199	0x3c452d12	0.012034671
200	0x3b6125bf	0.0034354774
201	0xbd065a17	-0.03280076
202	0x3d1b4e75	0.03791662
203	0xbbe57346	-0.007002267
204	0x3d0ff8bd	0.035149325
205	0xbd0be4fe	-0.03415393
206	0xbd059c3d	-0.032619704
207	0xbb372205	-0.0027943861
208	0x3c416181	0.011803032
209	0xbd082730	-0.033240497
210	0x3c3eb72f	0.011640354
211	0x3ba1af81	0.004934252
212	0x3c9d8c8f	0.019232063
213	0xbd45ede0	-0.04832256
214	0xbd2ad4bb	-0.04170678
215	0xbd45bc23	-0.048275124
216	0xbc069226	-0.008213555
217	0xbcd4f9d4	-0.025998034
218	0xba50adc6	-0.00079604646
219	0xbd2ec171	-0.04266495
220	0xbd277e8b	-0.040892165
221	0xbcd85444	-0.026407368
222	0x3b9964cf	0.004681207
223	0x3bca858a	0.00618047
224	0xbcf027d6	-0.02931587
225	0x3c852655	0.01625363
226	0x3b8294a6	0.0039850054
227	0xbc9c91d9	-0.019112514
228	0xbd04f183	-0.032456886
229	0x3b63c777	0.0034756341
230	0x3bc7ffbe	0.006103485
231	0x3d1a97e2	0.037742503
232	0xbcaca62a	-0.021075327
233	0x3d0a5e99	0.03378162
234	0x3c7b001f	0.015319853
235	0x3a48c6e3	0.0007659031
236	0xbce47f76	-0.02789281
237	0xbcbd90d5	-0.02314035
238	0x3c1bdc7c	0.009513017
239	0x3d14d661	0.03633726
240	0xbc8a9fae	-0.016921844
241	0xbd1e9b63	-0.038722407
242	0xbd3c35bc	-0.045949683
243	0xbc7db64e	-0.015485359
244	0xbc76e355	-0.015068849
245	0x3bd5fd9a	0.006530476
246	0xbbe13e81	-0.006873906
247	0xbd332590	-0.043736994
248	0xbd0ab58b	-0.03386454
249	0xbc05f4fb	-0.008176084
250	0xbc38b108	-0.011272676
251	0xba6607a9	-0.0008774945
252	0x3b8fa3e0	0.004383549
253	0xbd410247	-0.047121312
254	0xbcaeb22f	-0.021325199
255	0xbbf2e457	-0.007412474

refine_block.3.bias f4 [64]
0	0x3cbb7d0e	0.02288678
1	0xbd10a7ea	-0.035316385
2	0x3d070a79	0.032968972
3	0x3c867da0	0.016417325
4	0x3c6a1588	0.01428736
5	0x3caabeed	0.020842994
6	0xbcccb1b1	-0.024987074
7	0xbd09c788	-0.033637553
8	0xbc23ff85	-0.010009651
9	0x3c7adf83	0.015312078
10	0x3b4f88ef	0.0031667312
11	0xbd04543b	-0.03230689
12	0xbd26b0fa	-0.04069612
13	0xbc42fbc8	-0.01190085
14	0xbd0a1ac8	-0.033716947
15	0xbcdffc67	-0.027342035
16	0xbc2602c8	-0.010132499
17	0xbc5d23a2	-0.013497265
18	0xbcd345b6	-0.025790077
19	0x3d033872	0.032036252
20	0xbd183b6b	-0.03716604
21	0xbc8564b7	-0.016283376
22	0x3c6474a5	0.013943826
23	0x394cd8ac	0.00019535673
24	0x3c7373f3	0.014859187
25	0xbcc34f21	-0.023841443
26	0x3c9cd9b4	0.019146778
27	0xbc65e14c	-0.014030766
28	0xbccffa81	-0.025388004
29	0x3ce065e5	0.027392337
30	0xbd0a19a7	-0.03371587
31	0xbb819814	-0.0039548967
32	0x3d24cf99	0.040237043
33	0xbb3bd614	-0.0028661536
34	0x3c3bb703	0.011457208
35	0x3c59876b	0.013276915
36	0x3ce996ca	0.028514285
37	0x3d24800c	0.040161178
38	0x3c4dfb3f	0.012572109
39	0x3bb4a276	0.005512531
40	0x3c238f68	0.009982921
41	0xbd15929e	-0.03651678
42	0xbcc6c8c0	-0.024265647
43	0xbc801289	-0.015633838
44	0x3d130eef	0.035902914
45	0x3bdecf05	0.006799581
46	0xbcc8a05a	-0.024490524
47	0x3c5749a0	0.013140112
48	0x3ba0f41c	0.0049119126
49	0x3c7d0bdc	0.015444722
50	0x3caf44ad	0.021395052
51	0xbcc747db	-0.024326256
52	0x3cad321c	0.021142058
53	0xbd06886b	-0.032844942
54	0xbcee9b24	-0.029126711
55	0x3cd566db	0.026050022
56	0xbd0e6b3e	-0.034770243
57	0xbd04dc41	-0.032436613
58	0xbccd68f9	-0.025074469
59	0xbcb9f1f3	-0.022698378
60	0x3c36b50a	0.0111515615
61	0x3cb71c49	0.022352355
62	0xbbff8726	-0.0077980934
63	0x3c279045	0.010227268

refine_block.4.weight f4 [64]
0	0x3f8bb539	1.091468
1	0x3f91d715	1.1393763
2	0x3f8d8f17	1.1059293
3	0x3f913157	1.1343182
4	0x3f8d2d0f	1.1029376
5	0x3f879917	1.0593594
6	0x3f8d6975	1.1047808
7	0x3f96cb67	1.1780823
8	0x3f927843	1.1442951
9	0x3f8de5eb	1.108579
10	0x3f8dd1ea	1.1079686
11	0x3f936114	1.1514001
12	0x3f97ec13	1.1868919
13	0x3f87ad96	1.0599849
14	0x3f985a40	1.1902542
15	0x3f8df330	1.108984
16	0x3f930068	1.1484499
17	0x3f8fdc3b	1.1239084
18	0x3f8e8df1	1.1137067
19	0x3f8e41c6	1.1113822
20	0x3f94c8eb	1.1623815
21	0x3f8db6bc	1.1071391
22	0x3f899192	1.074755
23	0x3f93ba7d	1.1541287
24	0x3f870bed	1.0550514
25	0x3f935b83	1.1512302
26	0x3fa2af41	1.2709733
27	0x3f97c25f	1.1856192
28	0x3f8cb1d3	1.0991768
29	0x3f8b6b4e	1.0892122
30	0x3f988876	1.1916645
31	0x3f9818da	1.1882584
32	0x3f96bbf1	1.1776105
33	0x3f996262	1.1983149
34	0x3f8ed7c0	1.1159592
35	0x3f916fea	1.1362278
36	0x3f949554	1.1608071
37	0x3f940bb7	1.1566075
38	0x3f92fa27	1.148259
39	0x3f936e36	1.1518009
40	0x3f8f5bc3	1.1199878
41	0x3f919f75	1.1376787
42	0x3f94769d	1.1598698
43	0x3f960231	1.1719419
44	0x3fb3a5e1	1.4034997
45	0x3f852f70	1.0405102
46	0x3faf2777	1.3683919
47	0x3f93e8c8	1.1555414
48	0x3facae4a	1.3490689
49	0x3f96d0c4	1.178246
50	0x3f8c6a6e	1.096998
51	0x3f8ffd02	1.1249087
52	0x3f9740ad	1.1816612
53	0x3f7e07e6	0.992308
54	0x3f8cc0d7	1.099635
55	0x3f8ae7e1	1.0852014
56	0x3f8d9dad	1.1063744
57	0x3f90b733	1.1305908
58	0x3f9168f5	1.1360155
59	0x3f97162d	1.1803643
60	0x3f8e3114	1.1108727
61	0x3f8c8bc7	1.0980157
62	0x3fbd05a4	1.4767346
63	0x3f8b5eb8	1.0888281

refine_block.4.bias f4 [64]
0	0x3e458169	0.19287647
1	0x3e09bec2	0.13451675
2	0x3c5ee436	0.013604214
3	0x3e5848e4	0.21121556
4	0xbda63cdf	-0.08117079
5	0x3d5fa2b6	0.054598533
6	0x3e232c61	0.15934898
7	0x3e0b1366	0.13581619
8	0x3e5d5e07	0.216179
9	0x3e6357d1	0.22201468
10	0x3940ef37	0.00018399661
11	0x3e3ededd	0.18639703
12	0x3e810811	0.25201467
13	0x3da47a1e	0.080311045
14	0x3e141f9f	0.14465187
15	0x3e000d31	0.12505032
16	0x3e75c049	0.23999132
17	0x3ddf4b76	0.10903065
18	0x3e588c6e	0.2114732
19	0x3e4e3792	0.20138386
20	0x3e721f0c	0.23644656
21	0x3e347bd4	0.17625362
22	0x3dccc960	0.09999347
23	0x3e6be568	0.2303673
24	0xbcabbff8	-0.020965561
25	0x3dbdb9ea	0.09263976
26	0x3eb2639a	0.34841615
27	0x3e2f5136	0.17120823
28	0x3d84ab1c	0.06477949
29	0x3df75193	0.12076106
30	0x3e3c9859	0.18417491
31	0x3e8f6594	0.28007185
32	0x3e71d9cd	0.2361824
33	0x3e18df7b	0.14929001
34	0x3e5c0ea2	0.21489957
35	0x3e3f6049	0.18689074
36	0x3e7f83ba	0.24952593
37	0x3dd971f7	0.1061744
38	0x3e061d7f	0.1309719
39	0x3e838f45	0.25695243
40	0x3e77ad9d	0.24187322
41	0x3dc3541a	0.095375255
42	0x3e743693	0.23848943
43	0x3e28e861	0.16494896
44	0x3eb16564	0.34647667
45	0xbd453931	-0.048150245
46	0x3ea87cf8	0.32907844
47	0x3e14f174	0.14545232
48	0x3ead7297	0.33876488
49	0x3e95b2ea	0.29238063
50	0x3e55d0bf	0.20880412
51	0x3e6c35c6	0.23067388
52	0x3e0b5c9a	0.13609543
53	0xbdd203b4	-0.102546126
54	0xbd83ff78	-0.06445211
55	0xbd2e4004	-0.04254152
56	0x3e509429	0.20369019
57	0x3daea2ed	0.085271694
58	0x3bfe8db5	0.0077683576
59	0x3e8b1e42	0.27171522
60	0x3e0ecf64	0.139463
61	0xbd97b1ea	-0.07406981
62	0x3e9d7e77	0.30760548
63	0x3da98fa8	0.082793534

refine_block.4.running_mean f4 [64]
0	0xbfb4c8c3	-1.4123768
1	0xbf0a413a	-0.5400578
2	0xbd968d93	-0.07351222
3	0x3ce48e43	0.027899867
4	0x3f709e22	0.9399129
5	0xbe3ceb27	-0.18449079
6	0xbf72110b	-0.94557256
7	0xbf09b34f	-0.5378923
8	0xbf883419	-1.0640899
9	0xbf06c8ef	-0.5265035
10	0x3f507200	0.8142395
11	0xbeec9ea1	-0.46214774
12	0xbf8e3da7	-1.1112565
13	0xbd6a9468	-0.057270437
14	0x3f8b1709	1.0866405
15	0xbec25479	-0.37955073
16	0xbf8c9e26	-1.0985763
17	0xbeafa70f	-0.34307143
18	0xbfcc0ce0	-1.5941429
19	0xbf933428	-1.1500292
20	0xbfbcc1e9	-1.4746677
21	0xbfc451f3	-1.5337509
22	0x3c093b1a	0.008375907
23	0xbcd8fd62	-0.02648801
24	0x3f667b77	0.9003214
25	0xbeaa8a37	-0.33308575
26	0xbe54b8d8	-0.20773637
27	0xbf10d9e4	-0.56582475
28	0x3e81ab83	0.25326166
29	0xbeb11b70	-0.34591246
30	0xbf1bb78b	-0.6082694
31	0xbed502a9	-0.41603592
32	0xbf41c833	-0.75696105
33	0x3fa3ef24	1.2807355
34	0xbfdc08c1	-1.7190171
35	0x3f1f17e1	0.6214581
36	0xbeb0e64b	-0.345507
37	0xbe457e89	-0.1928655
38	0xbf110618	-0.56649923
39	0x3e43f28d	0.19135495
40	0xbf57f15b	-0.84352654
41	0x3e921922	0.285348
42	0xbfc6748b	-1.5504316
43	0xbe67288b	-0.2257406
44	0xbe5a12fc	-0.21296304
45	0x3cc9c23f	0.024628757
46	0xbe948350	-0.29006433
47	0xbec80022	-0.390626
48	0xbeadb468	-0.33926702
49	0xbf184b5a	-0.5948998
50	0xbf945742	-1.1589129
51	0xbf2e210e	-0.6801919
52	0xbcf01074	-0.02930472
53	0xbd89e482	-0.067330375
54	0x3f59fb9f	0.8514957
55	0x3f4b0a04	0.7931216
56	0xbf246398	-0.6421447
57	0x3e425116	0.18976244
58	0x3f852742	1.0402606
59	0xbd6e1195	-0.058122236
60	0xbefbaa9d	-0.49153605
61	0x3f651914	0.8949139
62	0xbe901859	-0.28143576
63	0xbec5c3c5	-0.38625923

refine_block.4.running_var f4 [64]
0	0x3f45886a	0.77161276
1	0x3e06388e	0.13107511
2	0x3daabecd	0.083371736
3	0x3e74f97e	0.23923299
4	0x3ed19c37	0.40939495
5	0x3e52c071	0.20581223
6	0x3e7957f3	0.24349956
7	0x3dd8d404	0.10587314
8	0x3f049b5a	0.5179955
9	0x3ec14a56	0.37752026
10	0x3e9a47ce	0.30132908
11	0x3e403734	0.18771058
12	0x3f1dea19	0.6168533
13	0x3e0df886	0.13864335
14	0x3f2cf10e	0.6755532
15	0x3debf748	0.115217745
16	0x3f3be26c	0.7339237
17	0x3e2baeb8	0.16765869
18	0x3fb21661	1.391308
19	0x3f005166	0.50124204
20	0x3f324132	0.6963073
21	0x3f43106d	0.7619694
22	0x3e17f0e6	0.14837989
23	0x3e316c45	0.17326458
24	0x3ea1fe38	0.31639266
25	0x3df1f056	0.118134186
26	0x3e78b3dd	0.24287362
27	0x3e142255	0.14466222
28	0x3dfdd3c4	0.12393907
29	0x3e5a05ef	0.21291326
30	0x3e302db2	0.17204931
31	0x3e8c6a2e	0.2742476
32	0x3ec6f9aa	0.38862354
33	0x3f2fc3ec	0.6865833
34	0x3fdf6292	1.7451956
35	0x3ed30533	0.41214904
36	0x3e775426	0.24153194
37	0x3e3e29bb	0.18570606
38	0x3e0b3f69	0.13598408
39	0x3e1a7c3d	0.15086456
40	0x3f5858c9	0.84510475
41	0x3e976d71	0.29575685
42	0x3fb643a1	1.4239389
43	0x3dfb5fb0	0.1227411
44	0x3e0ac4c9	0.1355163
45	0x3db9ffc4	0.090819865
46	0x3e22e9f8	0.15909564
47	0x3e5cc237	0.21558462
48	0x3e37364c	0.17891806
49	0x3f1431ee	0.57888687
50	0x3f9e109c	1.2348819
51	0x3ec51f53	0.3850046
52	0x3e55156a	0.2080895
53	0x3e2204cf	0.15822147
54	0x3eaca762	0.33721453
55	0x3e91226a	0.28346568
56	0x3f2e32f4	0.680465
57	0x3e221455	0.15828069
58	0x3f0dc248	0.55374575
59	0x3e3bd030	0.18341136
60	0x3e7271f8	0.23676288
61	0x3e96bb28	0.29439664
62	0x3e16b940	0.14719105
63	0x3e6b2722	0.22964147

refine_block.6.fc1.weight f4 [8, 64, 1, 1]
0	0x3e0fece9	0.14055218
1	0x3baca1e8	0.005268324
2	0x3b2c52ac	0.0026294393
3	0xbdb75a75	-0.089528
4	0xbdd79221	-0.10525919
5	0xbc83f3a8	-0.016107395
6	0xbcbef082	-0.023308042
7	0x3dcdafe3	0.10043313
8	0xbd41bf8a	-0.047301807
9	0x3dd51d37	0.10405963
10	0xbbabe2f7	-0.005245562
11	0x3e049cae	0.12950394
12	0x3dd1a4d0	0.102365136
13	0xbcfc056b	-0.030764302
14	0x3d9c4cf0	0.07631862
15	0xbd97e5fa	-0.074169114
16	0x3e125af7	0.14292513
17	0x3d768e32	0.0601942
18	0xbd659987	-0.05605462
19	0xbb68ef2e	-0.0035542953
20	0x3dcf9390	0.10135567
21	0x3d722a7f	0.05912256
22	0xbda75f15	-0.08172432
23	0x3d5af80c	0.053459212
24	0x3d0c6baf	0.034282383
25	0x3d3e10ce	0.046402745
26	0x3d421fd7	0.047393646
27	0xbd92e05b	-0.07171699
28	0x3d9ab0c9	0.0755325
29	0xbd5f9312	-0.054583617
30	0xbabd089f	-0.0014422125
31	0xbd31d340	-0.043414354
32	0x3d7dbdfa	0.061948754
33	0x3da53af2	0.080678836
34	0xbd9a5f07	-0.07537656
35	0xbdf6deaf	-0.12054192
36	0x3c19b161	0.009380669
37	0x3d19420d	0.037416507
38	0xbd290d5b	-0.041272502
39	0xbcbf8e79	-0.023383366
40	0x3cd97f2f	0.026549904
41	0xbdb5e14c	-0.088808626
42	0xbaaf843a	-0.0013390847
43	0xbdec6c27	-0.11544066
44	0x3e1e8753	0.1548131
45	0x3d36bd39	0.04461405
46	0x3e0023b6	0.12513623
47	0x3de882e3	0.1135309
48	0x3e15317b	0.14569657
49	0x3c4a8f13	0.012363213
50	0xbc922a87	-0.017842544
51	0xbd7c32d9	-0.06157193
52	0x3dfb4f2b	0.122709595
53	0xbdeb283b	-0.11482283
54	0xbdcc44fe	-0.09974097
55	0xbc99153c	-0.018686883
56	0xbd9ace7e	-0.075589165
57	0xbbfe17e8	-0.0077543147
58	0xbe0838ca	-0.13302913
59	0x3d9a022f	0.07519948
60	0xbd233690	-0.039846957
61	0xbd992661	-0.07478023
62	0x3e0a9672	0.13533953
63	0xbd8f5e33	-0.07000389
64	0x3d9ae45c	0.07563087
65	0x3c41d97a	0.011831636
66	0x3d82c129	0.063844986
67	0x3e1a9640	0.15096378
68	0x3d8a1c76	0.0674371
69	0x3e2da590	0.16957688
70	0x3e3d2774	0.18472081
71	0x3d652fbd	0.05595373
72	0x3e2fd0a7	0.17169438
73	0x3e3b5c86	0.18297014
74	0x3e748b5b	0.23881285
75	0x3d89c11a	0.06726284
76	0x3dd694e1	0.10477615
77	0x3dc5c1e0	0.09656119
78	0x3e0865d5	0.13320096
79	0x3e0a8060	0.13525534
80	0x3db57615	0.08860413
81	0x3e506a7d	0.20353122
82	0x3d4c7873	0.049919557
83	0x3e05e232	0.13074568
84	0x3e3b3273	0.18280964
85	0xbce8a6e3	-0.02839989
86	0x3e3ae467	0.18251191
87	0xbb84683f	-0.0040407474
88	0x3da5222d	0.08063159
89	0xbc74b104	-0.014934782
90	0x3d15678d	0.036475707
91	0x3e08e152	0.13367203
92	0x3e89a212	0.26881462
93	0x3d8bb4a4	0.06821564
94	0x3e31ad5a	0.17351285
95	0x3e278a33	0.16361313
96	0xbc9c9bd1	-0.019117268
97	0x3e23ce7a	0.15996733
98	0xbc5a765d	-0.013333884
99	0x3e6a9851	0.22909667
100	0x3da81801	0.082077034
101	0x3e7dfd56	0.24803671
102	0x3d9ed4d5	0.07755438
103	0x3dc1e836	0.09468119
104	0x3e0b18a0	0.13583612
105	0x3e61b0b6	0.22040066
106	0x3e1239dd	0.14279886
107	0x3e315c48	0.17320359
108	0x3e415087	0.18878375
109	0x3df3d244	0.11905339
110	0xbd02baf0	-0.03191656
111	0x3d2dc54b	0.04242448
112	0x3cc002c1	0.023438813
113	0x3dddb58e	0.108256444
114	0x3d7c2fd0	0.061569035
115	0x3db2ad03	0.087244056
116	0x3e2adcc9	0.16685785
117	0x3cdf843a	0.02728473
118	0x3e5e5ef0	0.21715903
119	0x3e66b889	0.22531332
120	0x3db02c1d	0.08602164
121	0x3e5593c0	0.20857143
122	0x3e4ed16d	0.20197077
123	0x3dcb6b16	0.099325344
124	0x3df4f607	0.119609885
125	0x3d73cc75	0.059521157
126	0x3d070d33	0.032971572
127	0xbc99507f	-0.018715141
128	0x3e2f1820	0.17099047
129	0x3dc425a0	0.09577489
130	0x3e741655	0.23836644
131	0x3e929fb0	0.28637457
132	0x3d37ffed	0.044921804
133	0x3d0f75b1	0.03502435
134	0x3d8c8939	0.06862111
135	0xbdaf69a4	-0.08565071
136	0x3e1ede8d	0.15514584
137	0x3dafaef4	0.085782915
138	0x3e88ab5e	0.26693243
139	0x3d3b20bb	0.04568551
140	0x3e514cdb	0.20439474
141	0x3e7cd5ec	0.2469098
142	0x3e1cbbe1	0.15306045
143	0x3e56a67f	0.2096195
144	0x3dadd303	0.08487513
145	0x3dc6a3eb	0.096992336
146	0x3e22df2b	0.15905444
147	0x3d31df0d	0.04342561
148	0x3d8af615	0.06785218
149	0x3d057bb7	0.032588687
150	0x3e1727b3	0.14761238
151	0x3e9f8135	0.31153265
152	0x3e76cdae	0.24101898
153	0x3d98b5b6	0.074565336
154	0x3e4f1ba2	0.20225385
155	0xbb96da76	-0.0046036793
156	0x3e376bf8	0.1791228
157	0x3e354264	0.17701107
158	0x3e193140	0.14960194
159	0x3d4db508	0.050221473
160	0x3de0727a	0.10959335
161	0x3db2a6f1	0.08723248
162	0x3e35cff2	0.17755106
163	0x3e0e490b	0.13895051
164	0x3e028031	0.12744214
165	0x3c02cd81	0.007983566
166	0x3e2b61ec	0.16736573
167	0x3eadec9a	0.33969575
168	0x3db1f071	0.08688439
169	0x3dc04e1a	0.09389897
170	0x3e1389f3	0.14408092
171	0x3e1a98bd	0.15097328
172	0x3d2d08ee	0.042244844
173	0x3e47b369	0.19502033
174	0xbc8ec665	-0.017428586
175	0xbdd45816	-0.103683636
176	0x3df60fd0	0.12014735
177	0x3e84b2a0	0.2591753
178	0x3e0efd36	0.1396378
179	0x3dd6ebdf	0.104942076
180	0x3bf27bf4	0.0074000303
181	0x3dd3e411	0.103462346
182	0x3d5e0a3e	0.054208986
183	0x3def2e56	0.1167876
184	0x3e5f6eaa	0.21819559
185	0x3e915945	0.2838842
186	0x3e6f7c49	0.23387255
187	0x3d5a4566	0.05328884
188	0x3c81c13f	0.015839217
189	0x3c2879fb	0.010282989
190	0x3e127887	0.1430379
191	0xbbda826d	-0.00666838
192	0x3e97ab75	0.29623
193	0x3e42d211	0.19025446
194	0x3e67093e	0.2256212
195	0x3e178f76	0.1480082
196	0x3e3f56d9	0.18685474
197	0x3e9d9016	0.3077399
198	0x3e08a873	0.13345508
199	0x3d86db6d	0.06584821
200	0x3e5936dc	0.21212333
201	0x3eaaae96	0.33336323
202	0x3e294184	0.16528898
203	0x3e75a7b8	0.23989761
204	0x3ea14edf	0.31505486
205	0x3e31d12d	0.1736495
206	0x3d8e3051	0.069428094
207	0x3e8891f1	0.26673844
208	0x3e0d2ff7	0.13787828
209	0x3d4e477b	0.050361138
210	0x3e36c7f9	0.17849721
211	0x3e6dceae	0.23223373
212	0x3e25e108	0.16199124
213	0x3e37b425	0.17939813
214	0x3e9fbda7	0.3119938
215	0x3e93afa9	0.28844956
216	0x3e8c1ff3	0.27368125
217	0x3c27dc67	0.010245419
218	0x3ea311ad	0.31849423
219	0x3db75aa2	0.08952834
220	0x3e564cd1	0.2092774
221	0x3e2a2419	0.16615333
222	0x3c04c86d	0.008104426
223	0x3d00d177	0.03144976
224	0x3e2c618f	0.1683409
225	0x3e2c237d	0.16810413
226	0x3e23da0f	0.16001152
227	0x3dbfeeb5	0.09371702
228	0x3d15690d	0.036477137
229	0x3e2b30aa	0.16717783
230	0xbc47d4f2	-0.012196766
231	0x3e9880ee	0.29785866
232	0x3e7a61ce	0.24451372
233	0x3dc6e283	0.097111724
234	0x3e342126	0.1759077
235	0x3e4aa68f	0.197901
236	0x3da7c75b	0.08192321
237	0x3dc570aa	0.096406296
238	0x3e6c126c	0.23053902
239	0x3d3bbaaf	0.045832332
240	0x3ddf8907	0.10914808
241	0x3e03d099	0.12872542
242	0x3e7d77b3	0.24752693
243	0x3d8da1b1	0.06915606
244	0x3d6a42ab	0.057192486
245	0x3e164c63	0.14677577
246	0x3d831e94	0.06402317
247	0x3e4d95a2	0.20076612
248	0x3dd71fea	0.10504134
249	0x3e2ebbeb	0.17063873
250	0x3e7f6fb9	0.24944963
251	0x3e606821	0.21914722
252	0x3e1de25f	0.15418385
253	0x3e91d128	0.28479886
254	0x3e6367c5	0.22207554
255	0x3dce0d0f	0.100610845

refine_block.6.fc2.weight f4 [64, 8, 1, 1]
0	0xbd882734	-0.066481024
1	0x3ebfa143	0.3742772
2	0x3dc2ab41	0.0950532
3	0xbd9c936c	-0.07645306
4	0x3ed0a608	0.40751672
5	0xbd3a5a43	-0.045496237
6	0x3dee3961	0.11632038
7	0x3e8a9d43	0.27073106
8	0xbdf76c03	-0.120811485
9	0xbda35066	-0.07974319
10	0x3eecefce	0.46276706
11	0x3ea43e3a	0.32078725
12	0x3d3d1565	0.04616298
13	0x3ea4a4ad	0.32156888
14	0x3ebffe91	0.37498906
15	0xbde59795	-0.112105526
16	0x3db8149b	0.08988305
17	0xbd37a866	-0.04483833
18	0xbde9dd61	-0.11419178
19	0x3d904db1	0.070460685
20	0xbd9b4744	-0.07581952
21	0x3cc2e9aa	0.02379306
22	0x3cc9557f	0.0245769
23	0x3e7b0696	0.24514231
24	0x3d6c6d96	0.057721697
25	0x3d1bb2cd	0.038012315
26	0x3e3c86b7	0.18410765
27	0x3db98a7c	0.09059617
28	0x3e8273cc	0.2547897
29	0xbdaa3f85	-0.08312897
30	0x3e6f9c7d	0.2339954
31	0xbe16e9e7	-0.14737664
32	0xbd053064	-0.032516852
33	0x3d072594	0.03299482
34	0x3e03759d	0.12837835
35	0x3c9db662	0.019252006
36	0x3e121fd0	0.14269948
37	0xbcbc8a72	-0.023015235
38	0x3e1cb270	0.15302444
39	0xbc3f74ff	-0.011685609
40	0x3ebd04eb	0.36917815
41	0xbdb44375	-0.08801929
42	0x3ea96e40	0.33091927
43	0xbe1061f0	-0.1409986
44	0x3e3d0a5f	0.18460988
45	0x3e65d433	0.22444229
46	0xbbd72092	-0.006565162
47	0x3ec40594	0.38285506
48	0x3e5f6f8e	0.21819898
49	0xbd0831e3	-0.0332507
50	0x3ea78fba	0.32726842
51	0x3e8f5b5a	0.27999383
52	0xbe0a744c	-0.13520926
53	0x3dbd2d52	0.0923716
54	0x3dff43e6	0.124641225
55	0x3e10ee86	0.1415349
56	0x3e0584be	0.13038918
57	0xbe1996ef	-0.14998983
58	0x3c364028	0.0111236945
59	0x3e893c50	0.26803827
60	0x3d9dd356	0.07706325
61	0x3e435d0e	0.19078466
62	0x3e5d9465	0.2163864
63	0x3eb16b31	0.34652093
64	0xbe7d8370	-0.2475717
65	0xbe034b63	-0.12821727
66	0xbdd3484e	-0.103165254
67	0x3f01d216	0.5071119
68	0x3f005c34	0.5014069
69	0x3eb1a1bc	0.34693706
70	0xbe02e113	-0.12781172
71	0x3eb5ca32	0.35505825
72	0x3e332159	0.1749319
73	0x3e0cd411	0.13752772
74	0x3e7f7a4a	0.24948993
75	0xbe36be63	-0.17846064
76	0x3e859d57	0.26096603
77	0xbe6d4ef7	-0.23174654
78	0xbe31c0c1	-0.17358686
79	0xbd8a1ef2	-0.067441836
80	0xbd2bcc15	-0.041942675
81	0xbdfa5ae8	-0.1222437
82	0x3e6ea3fd	0.23304744
83	0x3dc6d930	0.09709394
84	0xbe2849eb	-0.16434447
85	0x3e1fa09f	0.15588616
86	0x3c911faa	0.017715294
87	0x3df3b846	0.11900382
88	0xbe1ae719	-0.1512722
89	0xbd1855fd	-0.03719138
90	0x3ec14079	0.377445
91	0xbdddc0b7	-0.10827773
92	0xbc344356	-0.011002382
93	0x3ebbcb57	0.36678573
94	0x3ef6525e	0.48109716
95	0x3c10d38d	0.0088395
96	0x3e935df1	0.2878261
97	0x3eb5eb47	0.35531065
98	0xbd6224ec	-0.055210993
99	0xbe208c30	-0.15678477
100	0x3ed2e68e	0.41191524
101	0x3ef37994	0.47553694
102	0x3e8e8954	0.27839148
103	0x3d8193b1	0.06326998
104	0x3e5c7444	0.21528727
105	0x3e591fd3	0.21203546
106	0x3dbd6f2e	0.092497215
107	0xbdd9d39c	-0.106360644
108	0x3ec8c9e5	0.39216533
109	0xbd826a5b	-0.06367942
110	0x3ec8e004	0.3923341
111	0x3e5c4c45	0.2151347
112	0xbdc36a30	-0.09541738
113	0xbd53f8e1	-0.05175102
114	0x3d86e5f2	0.06586827
115	0x3e9ce449	0.30642918
116	0xbd616d16	-0.055035673
117	0x3e985e64	0.29759514
118	0x3eb054ba	0.3443964
119	0x3d66d63f	0.056356665
120	0xbe96f964	-0.29487145
121	0x3eb38b2c	0.35067117
122	0xbe499fda	-0.19689885
123	0x3e536fe5	0.20648153
124	0x3ea7e829	0.32794312
125	0x3eac52d5	0.33656946
126	0x3e7f3ce0	0.24925566
127	0x3dece9b7	0.11568015
128	0x3ea586d4	0.32329428
129	0x3df06d7f	0.11739635
130	0x3ec3aa06	0.38215655
131	0xbd3c1df1	-0.04592699
132	0xbe0da707	-0.13833247
133	0x3ef9722d	0.48719922
134	0x3edf3fc3	0.43603334
135	0x3d46398b	0.04839472
136	0x3e286421	0.16444446
137	0x3ecbe7c7	0.3982527
138	0x3e81933f	0.25307652
139	0x3dd96a1b	0.10615941
140	0x3e651eb5	0.22374995
141	0x3dcdc06f	0.100464694
142	0x3d205b3d	0.03914951
143	0xbdcb4be7	-0.099265866
144	0x3e8e825a	0.27833825
145	0xbdaa0371	-0.08301438
146	0xbd000da3	-0.031263005
147	0x3eec571a	0.46160203
148	0x3e002cfc	0.1251716
149	0x3d85248d	0.06501112
150	0xbd8e1cc6	-0.06939082
151	0xbdd314e7	-0.10306721
152	0x3e44ea21	0.19229938
153	0xbd1341da	-0.035951473
154	0xbdba585b	-0.09098884
155	0x3e678b24	0.22611672
156	0x3ef2b98b	0.47407183
157	0x3e151aa1	0.1456094
158	0x3e44a1f3	0.19202404
159	0x3e9e1686	0.3087656
160	0x3e9f933a	0.31167012
161	0x3e25b6dc	0.16183037
162	0x3ee9ec4d	0.45688096
163	0x3d14e6b6	0.036352836
164	0xbdf5b21d	-0.11996863
165	0x3ef06e3a	0.46959096
166	0x3e4ae87b	0.19815247
167	0xbe421e5f	-0.18956898
168	0x3d620e6d	0.05518954
169	0x3edc2d63	0.43003377
170	0x3dd9db06	0.106374785
171	0x3df22ee4	0.1182535
172	0x3e887055	0.26648203
173	0x3ed075a7	0.40714762
174	0x3e3d8359	0.18507136
175	0x3e7d639c	0.24745029
176	0x3e5668d2	0.20938423
177	0xbe1e2a06	-0.15445718
178	0xbe82703e	-0.2547626
179	0x3d8d822f	0.06909596
180	0xbe2d6d95	-0.16936333
181	0xbdb9c0df	-0.0906999
182	0x3e73dfaf	0.23815797
183	0xbe8a8546	-0.27054805
184	0x3ca805a2	0.020510498
185	0xbe7b1a06	-0.24521646
186	0xbe9123d2	-0.2834764
187	0xbe80a299	-0.25124052
188	0xbde0a5b6	-0.10969107
189	0x3c9e91ae	0.019356575
190	0x3eb981cd	0.36231843
191	0x3ea14089	0.3149455
192	0xbd94b1e4	-0.072604924
193	0x3eaeaec8	0.34117723
194	0x3e0f471b	0.13991968
195	0xbdcf4ca7	-0.10122042
196	0x3e8c0d46	0.27353877
197	0x3d12a4f0	0.035801828
198	0x3d97acd6	0.07406013
199	0x3db3ad01	0.08773232
200	0x3e32dde2	0.17467454
201	0x3eae2350	0.34011316
202	0x3e8a56e6	0.27019423
203	0xbe10afee	-0.14129612
204	0x3e6937c9	0.22775187
205	0x3df53238	0.11972469
206	0x3eb7438a	0.35793716
207	0x3cb03cb4	0.02151332
208	0xbdc43d09	-0.09581954
209	0x3ec97071	0.39343598
210	0x3e7bfaf4	0.2460745
211	0x3ea1e22b	0.31617865
212	0x3e8cb493	0.27481517
213	0xbd96ada0	-0.07357335
214	0x3e91f48c	0.28506887
215	0x3e873e9b	0.26414952
216	0xbe7c2e35	-0.24627002
217	0x3eca0187	0.3945429
218	0x3ed64870	0.4185214
219	0x3e212f8f	0.15740798
220	0x3d0703bd	0.03296255
221	0x3eeec0ac	0.46631372
222	0x3e369b0c	0.17832583
223	0x3e3b33de	0.18281505
224	0xbe8cdf36	-0.27514046
225	0x3e5046cc	0.20339507
226	0x3dc707e1	0.097183
227	0x3e1bd56f	0.15218137
228	0xbe4eb287	-0.2018529
229	0xbe426e31	-0.18987347
230	0xbd4f5319	-0.050616357
231	0xbe10cdc3	-0.14140992
232	0x3c083afd	0.008314845
233	0xbd612f82	-0.054976948
234	0x3e25f9c7	0.16208564
235	0x3e9c4a84	0.305256
236	0xbe30d61e	-0.17269179
237	0xbe3b7324	-0.18305641
238	0x3eb54b5c	0.35409057
239	0x3ebdffcc	0.3710922
240	0xbe1cc71a	-0.15310326
241	0x3e557476	0.20845208
242	0x3ed5e049	0.41772678
243	0x3d553975	0.05205675
244	0xbd8eba09	-0.06969077
245	0x3d9a51d5	0.075351395
246	0x3ef2eb81	0.474453
247	0x3e593098	0.21209943
248	0xbe7b6c8b	-0.24553125
249	0x3dc3260a	0.0952874
250	0x3e9ce3c3	0.30642518
251	0x3ee427eb	0.44561705
252	0x3e5986b3	0.2124279
253	0x3e8fbc54	0.2807337
254	0xbd4a125d	-0.04933392
255	0x3d4f3fa7	0.050597813
